----------------------------------------------------------------
        Layer (type)               Output Shape         Param #
================================================================
            Conv2d-1          [-1, 128, 63, 63]           1,152
              ReLU-2          [-1, 128, 63, 63]               0
         MaxPool2d-3          [-1, 128, 31, 31]               0
           Flatten-4             [-1, 128, 961]               0
         Tokenizer-5             [-1, 961, 128]               0
           Dropout-6             [-1, 961, 128]               0
         LayerNorm-7             [-1, 961, 128]             256
            Linear-8             [-1, 961, 384]          49,152
           Dropout-9          [-1, 4, 961, 961]               0
           Linear-10             [-1, 961, 128]          16,512
          Dropout-11             [-1, 961, 128]               0
        Attention-12             [-1, 961, 128]               0
         Identity-13             [-1, 961, 128]               0
        LayerNorm-14             [-1, 961, 128]             256
           Linear-15             [-1, 961, 512]          66,048
          Dropout-16             [-1, 961, 512]               0
           Linear-17             [-1, 961, 128]          65,664
          Dropout-18             [-1, 961, 128]               0
         Identity-19             [-1, 961, 128]               0
TransformerEncoderLayer-20             [-1, 961, 128]               0
        LayerNorm-21             [-1, 961, 128]             256
           Linear-22             [-1, 961, 384]          49,152
          Dropout-23          [-1, 4, 961, 961]               0
           Linear-24             [-1, 961, 128]          16,512
          Dropout-25             [-1, 961, 128]               0
        Attention-26             [-1, 961, 128]               0
         DropPath-27             [-1, 961, 128]               0
        LayerNorm-28             [-1, 961, 128]             256
           Linear-29             [-1, 961, 512]          66,048
          Dropout-30             [-1, 961, 512]               0
           Linear-31             [-1, 961, 128]          65,664
          Dropout-32             [-1, 961, 128]               0
         DropPath-33             [-1, 961, 128]               0
TransformerEncoderLayer-34             [-1, 961, 128]               0
        LayerNorm-35             [-1, 961, 128]             256
           Linear-36             [-1, 961, 384]          49,152
          Dropout-37          [-1, 4, 961, 961]               0
           Linear-38             [-1, 961, 128]          16,512
          Dropout-39             [-1, 961, 128]               0
        Attention-40             [-1, 961, 128]               0
         DropPath-41             [-1, 961, 128]               0
        LayerNorm-42             [-1, 961, 128]             256
           Linear-43             [-1, 961, 512]          66,048
          Dropout-44             [-1, 961, 512]               0
           Linear-45             [-1, 961, 128]          65,664
          Dropout-46             [-1, 961, 128]               0
         DropPath-47             [-1, 961, 128]               0
TransformerEncoderLayer-48             [-1, 961, 128]               0
        LayerNorm-49             [-1, 961, 128]             256
           Linear-50             [-1, 961, 384]          49,152
          Dropout-51          [-1, 4, 961, 961]               0
           Linear-52             [-1, 961, 128]          16,512
          Dropout-53             [-1, 961, 128]               0
        Attention-54             [-1, 961, 128]               0
         DropPath-55             [-1, 961, 128]               0
        LayerNorm-56             [-1, 961, 128]             256
           Linear-57             [-1, 961, 512]          66,048
          Dropout-58             [-1, 961, 512]               0
           Linear-59             [-1, 961, 128]          65,664
          Dropout-60             [-1, 961, 128]               0
         DropPath-61             [-1, 961, 128]               0
TransformerEncoderLayer-62             [-1, 961, 128]               0
        LayerNorm-63             [-1, 961, 128]             256
           Linear-64               [-1, 961, 1]             129
           Linear-65                    [-1, 2]             258
TransformerClassifier-66                    [-1, 2]               0
================================================================
Total params: 793,347
Trainable params: 793,347
Non-trainable params: 0
----------------------------------------------------------------
Input size (MB): 0.06
Forward/backward pass size (MB): 204.02
Params size (MB): 3.03
Estimated Total Size (MB): 207.11
----------------------------------------------------------------




{'best_acc': 85.09615384615384, 'test_accs': [… 'test_losses': [… 'train_acss': [… 'train_losses': [… 2021-12-31 21:28:50.697369
…
        n_conv_layers=1,
        kernel_size=3,
        stride=2,
        padding=0,
        pooling_kernel_size=3,
        pooling_stride=2,
        pooling_padding=0,
        num_layers=4,
        num_heads=4,
        mlp_radio=1.,
        num_classes=2,
        positional_embedding='None', # ['sine', 'learnable', 'none']
        )
print(summary(model.to(device), (1,128 ,128)))



----------------------------------------------------------------
        Layer (type)               Output Shape         Param #
================================================================
            Conv2d-1          [-1, 256, 64, 64]           2,304
              ReLU-2          [-1, 256, 64, 64]               0
         MaxPool2d-3          [-1, 256, 32, 32]               0
           Flatten-4            [-1, 256, 1024]               0
         Tokenizer-5            [-1, 1024, 256]               0
           Dropout-6            [-1, 1024, 256]               0
         LayerNorm-7            [-1, 1024, 256]             512
            Linear-8            [-1, 1024, 768]         196,608
           Dropout-9        [-1, 4, 1024, 1024]               0
           Linear-10            [-1, 1024, 256]          65,792
          Dropout-11            [-1, 1024, 256]               0
        Attention-12            [-1, 1024, 256]               0
         Identity-13            [-1, 1024, 256]               0
        LayerNorm-14            [-1, 1024, 256]             512
           Linear-15           [-1, 1024, 1024]         263,168
          Dropout-16           [-1, 1024, 1024]               0
           Linear-17            [-1, 1024, 256]         262,400
          Dropout-18            [-1, 1024, 256]               0
         Identity-19            [-1, 1024, 256]               0
TransformerEncoderLayer-20            [-1, 1024, 256]               0
        LayerNorm-21            [-1, 1024, 256]             512
           Linear-22            [-1, 1024, 768]         196,608
          Dropout-23        [-1, 4, 1024, 1024]               0
           Linear-24            [-1, 1024, 256]          65,792
          Dropout-25            [-1, 1024, 256]               0
        Attention-26            [-1, 1024, 256]               0
         DropPath-27            [-1, 1024, 256]               0
        LayerNorm-28            [-1, 1024, 256]             512
           Linear-29           [-1, 1024, 1024]         263,168
          Dropout-30           [-1, 1024, 1024]               0
           Linear-31            [-1, 1024, 256]         262,400
          Dropout-32            [-1, 1024, 256]               0
         DropPath-33            [-1, 1024, 256]               0
TransformerEncoderLayer-34            [-1, 1024, 256]               0
        LayerNorm-35            [-1, 1024, 256]             512
           Linear-36            [-1, 1024, 768]         196,608
          Dropout-37        [-1, 4, 1024, 1024]               0
           Linear-38            [-1, 1024, 256]          65,792
          Dropout-39            [-1, 1024, 256]               0
        Attention-40            [-1, 1024, 256]               0
         DropPath-41            [-1, 1024, 256]               0
        LayerNorm-42            [-1, 1024, 256]             512
           Linear-43           [-1, 1024, 1024]         263,168
          Dropout-44           [-1, 1024, 1024]               0
           Linear-45            [-1, 1024, 256]         262,400
          Dropout-46            [-1, 1024, 256]               0
         DropPath-47            [-1, 1024, 256]               0
TransformerEncoderLayer-48            [-1, 1024, 256]               0
        LayerNorm-49            [-1, 1024, 256]             512
           Linear-50            [-1, 1024, 768]         196,608
          Dropout-51        [-1, 4, 1024, 1024]               0
           Linear-52            [-1, 1024, 256]          65,792
          Dropout-53            [-1, 1024, 256]               0
        Attention-54            [-1, 1024, 256]               0
         DropPath-55            [-1, 1024, 256]               0
        LayerNorm-56            [-1, 1024, 256]             512
           Linear-57           [-1, 1024, 1024]         263,168
          Dropout-58           [-1, 1024, 1024]               0
           Linear-59            [-1, 1024, 256]         262,400
          Dropout-60            [-1, 1024, 256]               0
         DropPath-61            [-1, 1024, 256]               0
TransformerEncoderLayer-62            [-1, 1024, 256]               0
        LayerNorm-63            [-1, 1024, 256]             512
           Linear-64            [-1, 1024, 768]         196,608
          Dropout-65        [-1, 4, 1024, 1024]               0
           Linear-66            [-1, 1024, 256]          65,792
          Dropout-67            [-1, 1024, 256]               0
        Attention-68            [-1, 1024, 256]               0
         DropPath-69            [-1, 1024, 256]               0
        LayerNorm-70            [-1, 1024, 256]             512
           Linear-71           [-1, 1024, 1024]         263,168
          Dropout-72           [-1, 1024, 1024]               0
           Linear-73            [-1, 1024, 256]         262,400
          Dropout-74            [-1, 1024, 256]               0
         DropPath-75            [-1, 1024, 256]               0
TransformerEncoderLayer-76            [-1, 1024, 256]               0
        LayerNorm-77            [-1, 1024, 256]             512
           Linear-78            [-1, 1024, 768]         196,608
          Dropout-79        [-1, 4, 1024, 1024]               0
           Linear-80            [-1, 1024, 256]          65,792
          Dropout-81            [-1, 1024, 256]               0
        Attention-82            [-1, 1024, 256]               0
         DropPath-83            [-1, 1024, 256]               0
        LayerNorm-84            [-1, 1024, 256]             512
           Linear-85           [-1, 1024, 1024]         263,168
          Dropout-86           [-1, 1024, 1024]               0
           Linear-87            [-1, 1024, 256]         262,400
          Dropout-88            [-1, 1024, 256]               0
         DropPath-89            [-1, 1024, 256]               0
TransformerEncoderLayer-90            [-1, 1024, 256]               0
        LayerNorm-91            [-1, 1024, 256]             512
           Linear-92              [-1, 1024, 1]             257
           Linear-93                    [-1, 2]             514
TransformerClassifier-94                    [-1, 2]               0
================================================================
Total params: 4,737,539
Trainable params: 4,737,539
Non-trainable params: 0
----------------------------------------------------------------
Input size (MB): 0.06
Forward/backward pass size (MB): 470.01
Params size (MB): 18.07
Estimated Total Size (MB): 488.14
----------------------------------------------------------------
None
2021-12-31 22:06:18.273237
…
train_loader = DataLoader(CustomImageDataset('train.csv', '.', special_transform=transforms.Compose([tv.transforms.Grayscale(num_output_channels=1)]), transform=transforms.Compose([transforms.RandomHorizontalFlip(), transforms.RandomVerticalFlip(), transforms.RandomRotation(.05)])), batch_size=64, shuffle=True, num_workers=2, pin_memory=True)

test_loader = DataLoader(CustomImageDataset('test.csv', '.', special_transform=transforms.Compose([tv.transforms.Grayscale(num_output_channels=1)])), batch_size=64, shuffle=False, num_workers=2, pin_memory=True)



cuda
----------------------------------------------------------------
        Layer (type)               Output Shape         Param #
================================================================
            Conv2d-1          [-1, 256, 32, 32]           2,304
              ReLU-2          [-1, 256, 32, 32]               0
         MaxPool2d-3          [-1, 256, 16, 16]               0
           Flatten-4             [-1, 256, 256]               0
         Tokenizer-5             [-1, 256, 256]               0
           Dropout-6             [-1, 256, 256]               0
         LayerNorm-7             [-1, 256, 256]             512
            Linear-8             [-1, 256, 768]         196,608
           Dropout-9          [-1, 4, 256, 256]               0
           Linear-10             [-1, 256, 256]          65,792
          Dropout-11             [-1, 256, 256]               0
        Attention-12             [-1, 256, 256]               0
         Identity-13             [-1, 256, 256]               0
        LayerNorm-14             [-1, 256, 256]             512
           Linear-15            [-1, 256, 1024]         263,168
          Dropout-16            [-1, 256, 1024]               0
           Linear-17             [-1, 256, 256]         262,400
          Dropout-18             [-1, 256, 256]               0
         Identity-19             [-1, 256, 256]               0
TransformerEncoderLayer-20             [-1, 256, 256]               0
        LayerNorm-21             [-1, 256, 256]             512
           Linear-22             [-1, 256, 768]         196,608
          Dropout-23          [-1, 4, 256, 256]               0
           Linear-24             [-1, 256, 256]          65,792
          Dropout-25             [-1, 256, 256]               0
        Attention-26             [-1, 256, 256]               0
         DropPath-27             [-1, 256, 256]               0
        LayerNorm-28             [-1, 256, 256]             512
           Linear-29            [-1, 256, 1024]         263,168
          Dropout-30            [-1, 256, 1024]               0
           Linear-31             [-1, 256, 256]         262,400
          Dropout-32             [-1, 256, 256]               0
         DropPath-33             [-1, 256, 256]               0
TransformerEncoderLayer-34             [-1, 256, 256]               0
        LayerNorm-35             [-1, 256, 256]             512
           Linear-36             [-1, 256, 768]         196,608
          Dropout-37          [-1, 4, 256, 256]               0
           Linear-38             [-1, 256, 256]          65,792
          Dropout-39             [-1, 256, 256]               0
        Attention-40             [-1, 256, 256]               0
         DropPath-41             [-1, 256, 256]               0
        LayerNorm-42             [-1, 256, 256]             512
           Linear-43            [-1, 256, 1024]         263,168
          Dropout-44            [-1, 256, 1024]               0
           Linear-45             [-1, 256, 256]         262,400
          Dropout-46             [-1, 256, 256]               0
         DropPath-47             [-1, 256, 256]               0
TransformerEncoderLayer-48             [-1, 256, 256]               0
        LayerNorm-49             [-1, 256, 256]             512
           Linear-50             [-1, 256, 768]         196,608
          Dropout-51          [-1, 4, 256, 256]               0
           Linear-52             [-1, 256, 256]          65,792
          Dropout-53             [-1, 256, 256]               0
        Attention-54             [-1, 256, 256]               0
         DropPath-55             [-1, 256, 256]               0
        LayerNorm-56             [-1, 256, 256]             512
           Linear-57            [-1, 256, 1024]         263,168
          Dropout-58            [-1, 256, 1024]               0
           Linear-59             [-1, 256, 256]         262,400
          Dropout-60             [-1, 256, 256]               0
         DropPath-61             [-1, 256, 256]               0
TransformerEncoderLayer-62             [-1, 256, 256]               0
        LayerNorm-63             [-1, 256, 256]             512
           Linear-64             [-1, 256, 768]         196,608
          Dropout-65          [-1, 4, 256, 256]               0
           Linear-66             [-1, 256, 256]          65,792
          Dropout-67             [-1, 256, 256]               0
        Attention-68             [-1, 256, 256]               0
         DropPath-69             [-1, 256, 256]               0
        LayerNorm-70             [-1, 256, 256]             512
           Linear-71            [-1, 256, 1024]         263,168
          Dropout-72            [-1, 256, 1024]               0
           Linear-73             [-1, 256, 256]         262,400
          Dropout-74             [-1, 256, 256]               0
         DropPath-75             [-1, 256, 256]               0
TransformerEncoderLayer-76             [-1, 256, 256]               0
        LayerNorm-77             [-1, 256, 256]             512
           Linear-78             [-1, 256, 768]         196,608
          Dropout-79          [-1, 4, 256, 256]               0
           Linear-80             [-1, 256, 256]          65,792
          Dropout-81             [-1, 256, 256]               0
        Attention-82             [-1, 256, 256]               0
         DropPath-83             [-1, 256, 256]               0
        LayerNorm-84             [-1, 256, 256]             512
           Linear-85            [-1, 256, 1024]         263,168
          Dropout-86            [-1, 256, 1024]               0
           Linear-87             [-1, 256, 256]         262,400
          Dropout-88             [-1, 256, 256]               0
         DropPath-89             [-1, 256, 256]               0
TransformerEncoderLayer-90             [-1, 256, 256]               0
        LayerNorm-91             [-1, 256, 256]             512
           Linear-92               [-1, 256, 1]             257
           Linear-93                    [-1, 2]             514
TransformerClassifier-94                    [-1, 2]               0
================================================================
Total params: 4,737,539
Trainable params: 4,737,539
Non-trainable params: 0
----------------------------------------------------------------
Input size (MB): 0.02
Forward/backward pass size (MB): 81.50
Params size (MB): 18.07
Estimated Total Size (MB): 99.59
----------------------------------------------------------------
None
2022-01-01 14:19:58.555815
…
Epoch: [98]	 Loss 0.1553 (0.1301)	 acc 93.750 (94.824)
Test	  accuracy: 78.526 (Err: 0.790 )

Epoch: [99]	 Loss 0.1574 (0.1280)	 acc 93.750 (95.073)
Test	  accuracy: 82.372 (Err: 0.502 )

{'best_acc': 83.97435897435898, 'test_accs': [… 'test_losses': [… 'train_acss': [… 'train_losses': [… 2022-01-01 16:44:27.068498



================================================================================



---------------------------------------------------------------
        Layer (type)               Output Shape         Param #
================================================================
            Conv2d-1          [-1, 128, 32, 32]           1,152
              ReLU-2          [-1, 128, 32, 32]               0
         MaxPool2d-3          [-1, 128, 16, 16]               0
           Flatten-4             [-1, 128, 256]               0
         Tokenizer-5             [-1, 256, 128]               0
           Dropout-6             [-1, 256, 128]               0
         LayerNorm-7             [-1, 256, 128]             256
            Linear-8             [-1, 256, 384]          49,152
           Dropout-9          [-1, 4, 256, 256]               0
           Linear-10             [-1, 256, 128]          16,512
          Dropout-11             [-1, 256, 128]               0
        Attention-12             [-1, 256, 128]               0
         Identity-13             [-1, 256, 128]               0
        LayerNorm-14             [-1, 256, 128]             256
           Linear-15             [-1, 256, 512]          66,048
          Dropout-16             [-1, 256, 512]               0
           Linear-17             [-1, 256, 128]          65,664
          Dropout-18             [-1, 256, 128]               0
         Identity-19             [-1, 256, 128]               0
TransformerEncoderLayer-20             [-1, 256, 128]               0
        LayerNorm-21             [-1, 256, 128]             256
           Linear-22             [-1, 256, 384]          49,152
          Dropout-23          [-1, 4, 256, 256]               0
           Linear-24             [-1, 256, 128]          16,512
          Dropout-25             [-1, 256, 128]               0
        Attention-26             [-1, 256, 128]               0
         DropPath-27             [-1, 256, 128]               0
        LayerNorm-28             [-1, 256, 128]             256
           Linear-29             [-1, 256, 512]          66,048
          Dropout-30             [-1, 256, 512]               0
           Linear-31             [-1, 256, 128]          65,664
          Dropout-32             [-1, 256, 128]               0
         DropPath-33             [-1, 256, 128]               0
TransformerEncoderLayer-34             [-1, 256, 128]               0
        LayerNorm-35             [-1, 256, 128]             256
           Linear-36             [-1, 256, 384]          49,152
          Dropout-37          [-1, 4, 256, 256]               0
           Linear-38             [-1, 256, 128]          16,512
          Dropout-39             [-1, 256, 128]               0
        Attention-40             [-1, 256, 128]               0
         DropPath-41             [-1, 256, 128]               0
        LayerNorm-42             [-1, 256, 128]             256
           Linear-43             [-1, 256, 512]          66,048
          Dropout-44             [-1, 256, 512]               0
           Linear-45             [-1, 256, 128]          65,664
          Dropout-46             [-1, 256, 128]               0
         DropPath-47             [-1, 256, 128]               0
TransformerEncoderLayer-48             [-1, 256, 128]               0
        LayerNorm-49             [-1, 256, 128]             256
           Linear-50             [-1, 256, 384]          49,152
          Dropout-51          [-1, 4, 256, 256]               0
           Linear-52             [-1, 256, 128]          16,512
          Dropout-53             [-1, 256, 128]               0
        Attention-54             [-1, 256, 128]               0
         DropPath-55             [-1, 256, 128]               0
        LayerNorm-56             [-1, 256, 128]             256
           Linear-57             [-1, 256, 512]          66,048
          Dropout-58             [-1, 256, 512]               0
           Linear-59             [-1, 256, 128]          65,664
          Dropout-60             [-1, 256, 128]               0
         DropPath-61             [-1, 256, 128]               0
TransformerEncoderLayer-62             [-1, 256, 128]               0
        LayerNorm-63             [-1, 256, 128]             256
           Linear-64               [-1, 256, 1]             129
           Linear-65                    [-1, 2]             258
TransformerClassifier-66                    [-1, 2]               0
================================================================
Total params: 793,347
Trainable params: 793,347
Non-trainable params: 0
----------------------------------------------------------------
Input size (MB): 0.02
Forward/backward pass size (MB): 32.25
Params size (MB): 3.03
Estimated Total Size (MB): 35.29
----------------------------------------------------------------
None
2022-01-01 19:02:46.446149
…
