Total layers 12
----------------------------------------------------------------
        Layer (type)               Output Shape         Param #
================================================================
            Conv2d-1           [-1, 64, 32, 32]             576
              ReLU-2           [-1, 64, 32, 32]               0
         MaxPool2d-3           [-1, 64, 16, 16]               0
            Conv2d-4            [-1, 128, 8, 8]          73,728
              ReLU-5            [-1, 128, 8, 8]               0
         MaxPool2d-6            [-1, 128, 4, 4]               0
           Flatten-7              [-1, 128, 16]               0
         Tokenizer-8              [-1, 16, 128]               0
           Dropout-9              [-1, 16, 128]               0
        LayerNorm-10              [-1, 16, 128]             256
           Linear-11              [-1, 16, 384]          49,152
          Dropout-12            [-1, 2, 16, 16]               0
           Linear-13              [-1, 16, 128]          16,512
          Dropout-14              [-1, 16, 128]               0
        Attention-15              [-1, 16, 128]               0
         Identity-16              [-1, 16, 128]               0
        LayerNorm-17              [-1, 16, 128]             256
           Linear-18              [-1, 16, 512]          66,048
          Dropout-19              [-1, 16, 512]               0
           Linear-20              [-1, 16, 128]          65,664
          Dropout-21              [-1, 16, 128]               0
         Identity-22              [-1, 16, 128]               0
TransformerEncoderLayer-23              [-1, 16, 128]               0
        LayerNorm-24              [-1, 16, 128]             256
           Linear-25              [-1, 16, 384]          49,152
          Dropout-26            [-1, 2, 16, 16]               0
           Linear-27              [-1, 16, 128]          16,512
          Dropout-28              [-1, 16, 128]               0
        Attention-29              [-1, 16, 128]               0
         DropPath-30              [-1, 16, 128]               0
        LayerNorm-31              [-1, 16, 128]             256
           Linear-32              [-1, 16, 512]          66,048
          Dropout-33              [-1, 16, 512]               0
           Linear-34              [-1, 16, 128]          65,664
          Dropout-35              [-1, 16, 128]               0
         DropPath-36              [-1, 16, 128]               0
TransformerEncoderLayer-37              [-1, 16, 128]               0
        LayerNorm-38              [-1, 16, 128]             256
           Linear-39                [-1, 16, 1]             129
           Linear-40                    [-1, 2]             258
TransformerClassifier-41                    [-1, 2]               0
================================================================
Total params: 470,723
Trainable params: 470,723
Non-trainable params: 0
----------------------------------------------------------------
Input size (MB): 0.02
Forward/backward pass size (MB): 1.99
Params size (MB): 1.80
Estimated Total Size (MB): 3.80
----------------------------------------------------------------
