Total layers 11
----------------------------------------------------------------
        Layer (type)               Output Shape         Param #
================================================================
            Conv2d-1          [-1, 128, 31, 31]           3,200
              ReLU-2          [-1, 128, 31, 31]               0
         MaxPool2d-3          [-1, 128, 16, 16]               0
           Flatten-4             [-1, 128, 256]               0
         Tokenizer-5             [-1, 256, 128]               0
           Dropout-6             [-1, 256, 128]               0
         LayerNorm-7             [-1, 256, 128]             256
            Linear-8             [-1, 256, 384]          49,152
           Dropout-9          [-1, 2, 256, 256]               0
           Linear-10             [-1, 256, 128]          16,512
          Dropout-11             [-1, 256, 128]               0
        Attention-12             [-1, 256, 128]               0
         Identity-13             [-1, 256, 128]               0
        LayerNorm-14             [-1, 256, 128]             256
           Linear-15             [-1, 256, 512]          66,048
          Dropout-16             [-1, 256, 512]               0
           Linear-17             [-1, 256, 128]          65,664
          Dropout-18             [-1, 256, 128]               0
         Identity-19             [-1, 256, 128]               0
TransformerEncoderLayer-20             [-1, 256, 128]               0
        LayerNorm-21             [-1, 256, 128]             256
           Linear-22             [-1, 256, 384]          49,152
          Dropout-23          [-1, 2, 256, 256]               0
           Linear-24             [-1, 256, 128]          16,512
          Dropout-25             [-1, 256, 128]               0
        Attention-26             [-1, 256, 128]               0
         DropPath-27             [-1, 256, 128]               0
        LayerNorm-28             [-1, 256, 128]             256
           Linear-29             [-1, 256, 512]          66,048
          Dropout-30             [-1, 256, 512]               0
           Linear-31             [-1, 256, 128]          65,664
          Dropout-32             [-1, 256, 128]               0
         DropPath-33             [-1, 256, 128]               0
TransformerEncoderLayer-34             [-1, 256, 128]               0
        LayerNorm-35             [-1, 256, 128]             256
           Linear-36               [-1, 256, 1]             129
           Linear-37                    [-1, 2]             258
TransformerClassifier-38                    [-1, 2]               0
================================================================
Total params: 399,619
Trainable params: 399,619
Non-trainable params: 0
----------------------------------------------------------------
Input size (MB): 0.02
Forward/backward pass size (MB): 15.63
Params size (MB): 1.52
Estimated Total Size (MB): 17.17
----------------------------------------------------------------
